…
sd/lsd/custom$ python train_torch_fib25_lsd.py
/home/superstem/miniconda/envs/lsd_env/lib/python3.10/site-packages/google/api_core/_python_version_support.py:266: FutureWarning: You are using a Python version (3.10.14) which Google will stop supporting in new releases of google.api_core once it reaches its end of life (2026-10-04). Please upgrade to the latest Python version, or at least Python 3.11, to continue receiving updates for google.api_core past that date.
  warnings.warn(message, FutureWarning)
UNet(
  (l_conv): ModuleList(
    (0): ConvPass(
      (conv_pass): Sequential(
        (0): Conv3d(1, 12, kernel_size=(3, 3, 3), stride=(1, 1, 1))
        (1): ReLU()
        (2): Conv3d(12, 12, kernel_size=(3, 3, 3), stride=(1, 1, 1))
        (3): ReLU()
      )
    )
    (1): ConvPass(
      (conv_pass): Sequential(
        (0): Conv3d(12, 72, kernel_size=(3, 3, 3), stride=(1, 1, 1))
        (1): ReLU()
        (2): Conv3d(72, 72, kernel_size=(3, 3, 3), stride=(1, 1, 1))
        (3): ReLU()
      )
    )
    (2): ConvPass(
      (conv_pass): Sequential(
        (0): Conv3d(72, 432, kernel_size=(3, 3, 3), stride=(1, 1, 1))
        (1): ReLU()
        (2): Conv3d(432, 432, kernel_size=(3, 3, 3), stride=(1, 1, 1))
        (3): ReLU()
      )
    )
    (3): ConvPass(
      (conv_pass): Sequential(
        (0): Conv3d(432, 2592, kernel_size=(3, 3, 3), stride=(1, 1, 1))
        (1): ReLU()
        (2): Conv3d(2592, 2592, kernel_size=(3, 3, 3), stride=(1, 1, 1))
        (3): ReLU()
      )
    )
  )
  (l_down): ModuleList(
    (0-1): 2 x Downsample(
      (down): MaxPool3d(kernel_size=(2, 2, 2), stride=(2, 2, 2), padding=0, dilation=1, ceil_mode=False)
    )
    (2): Downsample(
      (down): MaxPool3d(kernel_size=(3, 3, 3), stride=(3, 3, 3), padding=0, dilation=1, ceil_mode=False)
    )
  )
  (r_up): ModuleList(
    (0): ModuleList(
      (0): Upsample(
        (up): ConvTranspose3d(72, 72, kernel_size=(2, 2, 2), stride=(2, 2, 2))
      )
      (1): Upsample(
        (up): ConvTranspose3d(432, 432, kernel_size=(2, 2, 2), stride=(2, 2, 2))
      )
      (2): Upsample(
        (up): ConvTranspose3d(2592, 2592, kernel_size=(3, 3, 3), stride=(3, 3, 3))
      )
    )
  )
  (r_conv): ModuleList(
    (0): ModuleList(
      (0): ConvPass(
        (conv_pass): Sequential(
          (0): Conv3d(84, 12, kernel_size=(3, 3, 3), stride=(1, 1, 1))
          (1): ReLU()
          (2): Conv3d(12, 12, kernel_size=(3, 3, 3), stride=(1, 1, 1))
          (3): ReLU()
        )
      )
      (1): ConvPass(
        (conv_pass): Sequential(
          (0): Conv3d(504, 72, kernel_size=(3, 3, 3), stride=(1, 1, 1))
          (1): ReLU()
          (2): Conv3d(72, 72, kernel_size=(3, 3, 3), stride=(1, 1, 1))
          (3): ReLU()
        )
      )
      (2): ConvPass(
        (conv_pass): Sequential(
          (0): Conv3d(3024, 432, kernel_size=(3, 3, 3), stride=(1, 1, 1))
          (1): ReLU()
          (2): Conv3d(432, 432, kernel_size=(3, 3, 3), stride=(1, 1, 1))
          (3): ReLU()
        )
      )
    )
  )
)
<bound method Module.modules of UNet(
  (l_conv): ModuleList(
    (0): ConvPass(
      (conv_pass): Sequential(
        (0): Conv3d(1, 12, kernel_size=(3, 3, 3), stride=(1, 1, 1))
        (1): ReLU()
        (2): Conv3d(12, 12, kernel_size=(3, 3, 3), stride=(1, 1, 1))
        (3): ReLU()
      )
    )
    (1): ConvPass(
      (conv_pass): Sequential(
        (0): Conv3d(12, 72, kernel_size=(3, 3, 3), stride=(1, 1, 1))
        (1): ReLU()
        (2): Conv3d(72, 72, kernel_size=(3, 3, 3), stride=(1, 1, 1))
        (3): ReLU()
      )
    )
    (2): ConvPass(
      (conv_pass): Sequential(
        (0): Conv3d(72, 432, kernel_size=(3, 3, 3), stride=(1, 1, 1))
        (1): ReLU()
        (2): Conv3d(432, 432, kernel_size=(3, 3, 3), stride=(1, 1, 1))
        (3): ReLU()
      )
    )
    (3): ConvPass(
      (conv_pass): Sequential(
        (0): Conv3d(432, 2592, kernel_size=(3, 3, 3), stride=(1, 1, 1))
        (1): ReLU()
        (2): Conv3d(2592, 2592, kernel_size=(3, 3, 3), stride=(1, 1, 1))
        (3): ReLU()
      )
    )
  )
  (l_down): ModuleList(
    (0-1): 2 x Downsample(
      (down): MaxPool3d(kernel_size=(2, 2, 2), stride=(2, 2, 2), padding=0, dilation=1, ceil_mode=False)
    )
    (2): Downsample(
      (down): MaxPool3d(kernel_size=(3, 3, 3), stride=(3, 3, 3), padding=0, dilation=1, ceil_mode=False)
    )
  )
  (r_up): ModuleList(
    (0): ModuleList(
      (0): Upsample(
        (up): ConvTranspose3d(72, 72, kernel_size=(2, 2, 2), stride=(2, 2, 2))
      )
      (1): Upsample(
        (up): ConvTranspose3d(432, 432, kernel_size=(2, 2, 2), stride=(2, 2, 2))
      )
      (2): Upsample(
        (up): ConvTranspose3d(2592, 2592, kernel_size=(3, 3, 3), stride=(3, 3, 3))
      )
    )
  )
  (r_conv): ModuleList(
    (0): ModuleList(
      (0): ConvPass(
        (conv_pass): Sequential(
          (0): Conv3d(84, 12, kernel_size=(3, 3, 3), stride=(1, 1, 1))
          (1): ReLU()
          (2): Conv3d(12, 12, kernel_size=(3, 3, 3), stride=(1, 1, 1))
          (3): ReLU()
        )
      )
      (1): ConvPass(
        (conv_pass): Sequential(
          (0): Conv3d(504, 72, kernel_size=(3, 3, 3), stride=(1, 1, 1))
          (1): ReLU()
          (2): Conv3d(72, 72, kernel_size=(3, 3, 3), stride=(1, 1, 1))
          (3): ReLU()
        )
      )
      (2): ConvPass(
        (conv_pass): Sequential(
          (0): Conv3d(3024, 432, kernel_size=(3, 3, 3), stride=(1, 1, 1))
          (1): ReLU()
          (2): Conv3d(432, 432, kernel_size=(3, 3, 3), stride=(1, 1, 1))
          (3): ReLU()
        )
      )
    )
  )
)>
Starting LSD training with PyTorch...
Traceback (most recent call last):
  File "/home/superstem/lsd/lsd/custom/train_torch_fib25_lsd.py", line 382, in <module>
    train_until(iterations)
  File "/home/superstem/lsd/lsd/custom/train_torch_fib25_lsd.py", line 376, in train_until
    b.request_batch(request)                                         # Constructs the actual pipeline and STARTS the process (workers working, batch stuff)
…
